…
  Data(x=[277864, 1], edge_index=[2, 597970], edge_attr=[597970], y=[12000])
  num graphs: 12000
  avg num_nodes/graph: 23
  num node features: 1
  num edge features: 1
  num classes: (appears to be a regression task)
Precomputing Positional Encoding statistics: ['GraphormerBias'] for all graphs...
  ...estimated to be undirected: True
Done! Took 00:05:37.10
Load dataset
Create train loader
Create val/test loader
GTModel(
  (input_drop): Dropout(p=0.1, inplace=False)
  (activation): GELU(approximate='none')
  (encoder): FeatureEncoder(
    (encoder): Sequential(
      (0): TypeDictNodeEncoder(
        (encoder): Embedding(28, 80)
      )
      (1): GraphormerEncoder(
        (0): BiasEncoder(
          (spatial_encoder): Embedding(21, 8)
          (edge_dis_encoder): Embedding(1280, 1)
          (edge_encoder): Embedding(4, 8)
        )
        (1): NodeEncoder(
          (in_degree_encoder): Embedding(64, 80)
          (out_degree_encoder): Embedding(64, 80)
          (input_dropout): Dropout(p=0.1, inplace=False)
        )
      )
    )
  )
  (convs): ModuleList(
    (0-11): 12 x GraphTransformerLayer(
      (attention): GeneralAttn(
        (in_proj): Linear(in_features=80, out_features=240, bias=True)
        (out_proj): Linear(in_features=80, out_features=80, bias=True)
      )
      (norm1): Sequential(
        (0): LayerNorm((80,), eps=1e-05, elementwise_affine=True)
      )
      (norm2): Sequential(
        (0): LayerNorm((80,), eps=1e-05, elementwise_affine=True)
      )
      (fc1): Linear(in_features=80, out_features=80, bias=True)
      (act): GELU(approximate='none')
      (drop_act): Dropout(p=0.1, inplace=False)
      (fc2): Linear(in_features=80, out_features=80, bias=True)
      (drop_res): Identity()
    )
  )
  (post_gt): GraphormerRegressionHead(
    (ln): LayerNorm((80,), eps=1e-05, elementwise_affine=True)
    (fc): Linear(in_features=80, out_features=1, bias=True)
  )
)
RawEncoder:
  
bn:
  eps: 1e-05
  mom: 0.1
cfg_dest: config.yaml
custom_metrics: []
dataset:
  augment_feature: []
  augment_feature_dims: []
  augment_feature_repr: original
  augment_label: 
  augment_label_dims: 0
  cache_load: False
  cache_save: False
  dir: /mnt/data2/duxin/.datasets/
  edge_dim: 128
  edge_encoder: False
  edge_encoder_bn: True
…
